…
5, trip_threshold=5, min_clip=-5.0, max_clip=3.0, use_prior=False, use_mtl=False, log_filename='log-2024-04-08-16-29-01.log', log_path='././log/TrajTPP-15-5/log-2024-04-08-16-29-01/')
2024-04-08 16:29:01,953 - INFO - Using GPU 1
2024-04-08 16:29:01,954 - INFO - load data...
2024-04-08 16:29:07,483 - INFO - num_drivers: 46, d_train: 20, d_val: 29, d_test: 28
2024-04-08 16:29:07,758 - INFO - Building model...
2024-04-08 16:29:07,758 - INFO - mean_log_inter_time: 1.5294513702392578, std_log_inter_time: 1.08988356590271
2024-04-08 16:29:10,257 - INFO - Model(
  (rnn): RNNLayer(
    (mark_embedding): Embedding(1187, 128)
    (temporal_embed): Linear(in_features=1, out_features=128, bias=True)
    (temporal_attn): GAULayer(
      (gau): GatedAttentionUnit(
        (activation): ReLU()
        (i_dense): Linear(in_features=128, out_features=640, bias=True)
        (o_dense): Linear(in_features=256, out_features=128, bias=True)
        (q_scaleoffset): ScaleOffset()
        (k_scaleoffset): ScaleOffset()
      )
      (norm): Norm()
    )
    (spatial_attn): GAULayer(
      (gau): GatedAttentionUnit(
        (activation): ReLU()
        (i_dense): Linear(in_features=128, out_features=640, bias=True)
        (o_dense): Linear(in_features=256, out_features=128, bias=True)
        (q_scaleoffset): ScaleOffset()
        (k_scaleoffset): ScaleOffset()
      )
      (norm): Norm()
    )
    (output_attn): GAULayer(
      (gau): GatedAttentionUnit(
        (activation): ReLU()
        (i_dense): Linear(in_features=128, out_features=640, bias=True)
        (o_dense): Linear(in_features=256, out_features=128, bias=True)
        (q_scaleoffset): ScaleOffset()
        (k_scaleoffset): ScaleOffset()
      )
      (norm): Norm()
    )
    (rnn): GGRU(
      (dropout): Dropout(p=0.1, inplace=False)
      (mark_fc): Linear(in_features=128, out_features=128, bias=True)
      (ggru_ln): MaybeLayerNorm(
        (ln): LayerNorm((128,), eps=0.001, elementwise_affine=True)
      )
    )
  )
  (mark_layer): Sequential(
    (0): Linear(in_features=128, out_features=1187, bias=True)
  )
  (driver_embedding): Embedding(46, 32)
  (enrichment_gran): GRAN(
    (layer_norm): MaybeLayerNorm(
      (ln): LayerNorm((128,), eps=0.001, elementwise_affine=True)
    )
    (lin_a): Linear(in_features=128, out_features=128, bias=True)
    (lin_c): Linear(in_features=32, out_features=128, bias=False)
    (lin_i): Linear(in_features=128, out_features=128, bias=True)
    (gau): GAULayer(
      (gau): GatedAttentionUnit(
        (activation): ReLU()
        (i_dense): Linear(in_features=128, out_features=640, bias=True)
        (o_dense): Linear(in_features=256, out_features=128, bias=True)
        (q_scaleoffset): ScaleOffset()
        (k_scaleoffset): ScaleOffset()
      )
      (norm): Norm()
    )
    (dropout): Dropout(p=0.1, inplace=False)
    (out_proj): Linear(in_features=128, out_features=128, bias=True)
  )
  (decoder): TransformedDistribution(
    (transforms): ModuleList(
      (0): FixedAffine()
      (1): Exp()
    )
    (base_dist): NormalMixtureDistribution(
      (hypernet): Hypernet(
        (activation): Tanh()
        (linear_rnn): Linear(in_features=128, out_features=192, bias=False)
        (linear_layers): ModuleList()
      )
    )
  )
  (h_mark_fc): Linear(in_features=128, out_features=128, bias=True)
  (h_time_fc): Linear(in_features=128, out_features=128, bias=True)
  (layer_norm_time): MaybeLayerNorm(
    (ln): LayerNorm((128,), eps=0.001, elementwise_affine=True)
  )
  (layer_norm_mark): MaybeLayerNorm(
    (ln): LayerNorm((128,), eps=0.001, elementwise_affine=True)
  )
)
2024-04-08 16:29:10,265 - INFO - Starting training...
  0%|          | 0/8 [00:00<?, ?it/s] 12%|=         | 1/8 [00:01<00:07,  1.00s/it] 25%|==        | 2/8 [00:01<00:03,  1.71it/s] 38%|===       | 3/8 [00:01<00:02,  2.21it/s] 50%|=====     | 4/8 [00:01<00:01,  2.56it/s] 62%|======    | 5/8 [00:02<00:01,  2.82it/s] 75%|=======   | 6/8 [00:02<00:00,  2.99it/s] 88%|========  | 7/8 [00:02<00:00,  3.10it/s]100%|==========| 8/8 [00:02<00:00,  3.68it/s]100%|==========| 8/8 [00:02<00:00,  2.73it/s]
…
2024-04-08 16:34:44,036 - INFO - load data...
2024-04-08 16:34:46,810 - INFO - num_drivers: 46, d_train: 20, d_val: 29, d_test: 28
2024-04-08 16:34:46,810 - INFO - num_drivers: 46, d_train: 20, d_val: 29, d_test: 28
2024-04-08 16:34:47,096 - INFO - Building model...
2024-04-08 16:34:47,096 - INFO - Building model...
2024-04-08 16:34:47,097 - INFO - mean_log_inter_time: 1.5294513702392578, std_log_inter_time: 1.08988356590271
2024-04-08 16:34:47,097 - INFO - mean_log_inter_time: 1.5294513702392578, std_log_inter_time: 1.08988356590271
2024-04-08 16:34:47,472 - INFO - Model(
  (rnn): RNNLayer(
    (mark_embedding): Embedding(1187, 128)
    (temporal_embed): Linear(in_features=1, out_features=128, bias=True)
    (temporal_attn): GAULayer(
      (gau): GatedAttentionUnit(
        (activation): ReLU()
        (i_dense): Linear(in_features=128, out_features=640, bias=True)
        (o_dense): Linear(in_features=256, out_features=128, bias=True)
        (q_scaleoffset): ScaleOffset()
        (k_scaleoffset): ScaleOffset()
      )
      (norm): Norm()
    )
    (spatial_attn): GAULayer(
      (gau): GatedAttentionUnit(
        (activation): ReLU()
        (i_dense): Linear(in_features=128, out_features=640, bias=True)
        (o_dense): Linear(in_features=256, out_features=128, bias=True)
        (q_scaleoffset): ScaleOffset()
        (k_scaleoffset): ScaleOffset()
      )
      (norm): Norm()
    )
    (output_attn): GAULayer(
      (gau): GatedAttentionUnit(
        (activation): ReLU()
        (i_dense): Linear(in_features=128, out_features=640, bias=True)
        (o_dense): Linear(in_features=256, out_features=128, bias=True)
        (q_scaleoffset): ScaleOffset()
        (k_scaleoffset): ScaleOffset()
      )
      (norm): Norm()
    )
    (rnn): GGRU(
      (dropout): Dropout(p=0.1, inplace=False)
      (mark_fc): Linear(in_features=128, out_features=128, bias=True)
      (ggru_ln): MaybeLayerNorm(
        (ln): LayerNorm((128,), eps=0.001, elementwise_affine=True)
      )
    )
  )
  (mark_layer): Sequential(
    (0): Linear(in_features=128, out_features=1187, bias=True)
  )
  (driver_embedding): Embedding(46, 32)
  (enrichment_gran): GRAN(
    (layer_norm): MaybeLayerNorm(
      (ln): LayerNorm((128,), eps=0.001, elementwise_affine=True)
    )
    (lin_a): Linear(in_features=128, out_features=128, bias=True)
    (lin_c): Linear(in_features=32, out_features=128, bias=False)
    (lin_i): Linear(in_features=128, out_features=128, bias=True)
    (gau): GAULayer(
      (gau): GatedAttentionUnit(
        (activation): ReLU()
        (i_dense): Linear(in_features=128, out_features=640, bias=True)
        (o_dense): Linear(in_features=256, out_features=128, bias=True)
        (q_scaleoffset): ScaleOffset()
        (k_scaleoffset): ScaleOffset()
      )
      (norm): Norm()
    )
    (dropout): Dropout(p=0.1, inplace=False)
    (out_proj): Linear(in_features=128, out_features=128, bias=True)
  )
  (decoder): TransformedDistribution(
    (transforms): ModuleList(
      (0): FixedAffine()
      (1): Exp()
    )
    (base_dist): NormalMixtureDistribution(
      (hypernet): Hypernet(
        (activation): Tanh()
        (linear_rnn): Linear(in_features=128, out_features=192, bias=False)
        (linear_layers): ModuleList()
      )
    )
  )
  (h_mark_fc): Linear(in_features=128, out_features=128, bias=True)
  (h_time_fc): Linear(in_features=128, out_features=128, bias=True)
  (layer_norm_time): MaybeLayerNorm(
    (ln): LayerNorm((128,), eps=0.001, elementwise_affine=True)
  )
  (layer_norm_mark): MaybeLayerNorm(
    (ln): LayerNorm((128,), eps=0.001, elementwise_affine=True)
  )
)
2024-04-08 16:34:47,472 - INFO - Model(
  (rnn): RNNLayer(
    (mark_embedding): Embedding(1187, 128)
    (temporal_embed): Linear(in_features=1, out_features=128, bias=True)
    (temporal_attn): GAULayer(
      (gau): GatedAttentionUnit(
        (activation): ReLU()
        (i_dense): Linear(in_features=128, out_features=640, bias=True)
        (o_dense): Linear(in_features=256, out_features=128, bias=True)
        (q_scaleoffset): ScaleOffset()
        (k_scaleoffset): ScaleOffset()
      )
      (norm): Norm()
    )
    (spatial_attn): GAULayer(
      (gau): GatedAttentionUnit(
        (activation): ReLU()
        (i_dense): Linear(in_features=128, out_features=640, bias=True)
        (o_dense): Linear(in_features=256, out_features=128, bias=True)
        (q_scaleoffset): ScaleOffset()
        (k_scaleoffset): ScaleOffset()
      )
      (norm): Norm()
    )
    (output_attn): GAULayer(
      (gau): GatedAttentionUnit(
        (activation): ReLU()
        (i_dense): Linear(in_features=128, out_features=640, bias=True)
        (o_dense): Linear(in_features=256, out_features=128, bias=True)
        (q_scaleoffset): ScaleOffset()
        (k_scaleoffset): ScaleOffset()
      )
      (norm): Norm()
    )
    (rnn): GGRU(
      (dropout): Dropout(p=0.1, inplace=False)
      (mark_fc): Linear(in_features=128, out_features=128, bias=True)
      (ggru_ln): MaybeLayerNorm(
        (ln): LayerNorm((128,), eps=0.001, elementwise_affine=True)
      )
    )
  )
  (mark_layer): Sequential(
    (0): Linear(in_features=128, out_features=1187, bias=True)
  )
  (driver_embedding): Embedding(46, 32)
  (enrichment_gran): GRAN(
    (layer_norm): MaybeLayerNorm(
      (ln): LayerNorm((128,), eps=0.001, elementwise_affine=True)
    )
    (lin_a): Linear(in_features=128, out_features=128, bias=True)
    (lin_c): Linear(in_features=32, out_features=128, bias=False)
    (lin_i): Linear(in_features=128, out_features=128, bias=True)
    (gau): GAULayer(
      (gau): GatedAttentionUnit(
        (activation): ReLU()
        (i_dense): Linear(in_features=128, out_features=640, bias=True)
        (o_dense): Linear(in_features=256, out_features=128, bias=True)
        (q_scaleoffset): ScaleOffset()
        (k_scaleoffset): ScaleOffset()
      )
      (norm): Norm()
    )
    (dropout): Dropout(p=0.1, inplace=False)
    (out_proj): Linear(in_features=128, out_features=128, bias=True)
  )
  (decoder): TransformedDistribution(
    (transforms): ModuleList(
      (0): FixedAffine()
      (1): Exp()
    )
    (base_dist): NormalMixtureDistribution(
      (hypernet): Hypernet(
        (activation): Tanh()
        (linear_rnn): Linear(in_features=128, out_features=192, bias=False)
        (linear_layers): ModuleList()
      )
    )
  )
  (h_mark_fc): Linear(in_features=128, out_features=128, bias=True)
  (h_time_fc): Linear(in_features=128, out_features=128, bias=True)
  (layer_norm_time): MaybeLayerNorm(
    (ln): LayerNorm((128,), eps=0.001, elementwise_affine=True)
  )
  (layer_norm_mark): MaybeLayerNorm(
    (ln): LayerNorm((128,), eps=0.001, elementwise_affine=True)
  )
)
2024-04-08 16:34:47,480 - INFO - Starting training...
2024-04-08 16:34:47,480 - INFO - Starting training...
  0%|          | 0/8 [00:00<?, ?it/s] 12%|=         | 1/8 [00:00<00:02,  3.33it/s] 25%|==        | 2/8 [00:00<00:01,  3.38it/s] 38%|===       | 3/8 [00:00<00:01,  3.41it/s] 50%|=====     | 4/8 [00:01<00:01,  3.45it/s] 62%|======    | 5/8 [00:01<00:00,  3.46it/s] 75%|=======   | 6/8 [00:01<00:00,  3.47it/s] 88%|========  | 7/8 [00:02<00:00,  3.47it/s]100%|==========| 8/8 [00:02<00:00,  4.06it/s]100%|==========| 8/8 [00:02<00:00,  3.66it/s]
…
2024-04-08 16:40:38,216 - INFO - num_drivers: 46, d_train: 20, d_val: 29, d_test: 28
2024-04-08 16:40:38,506 - INFO - Building model...
2024-04-08 16:40:38,506 - INFO - Building model...
2024-04-08 16:40:38,506 - INFO - Building model...
2024-04-08 16:40:38,507 - INFO - mean_log_inter_time: 1.5294513702392578, std_log_inter_time: 1.08988356590271
2024-04-08 16:40:38,507 - INFO - mean_log_inter_time: 1.5294513702392578, std_log_inter_time: 1.08988356590271
2024-04-08 16:40:38,507 - INFO - mean_log_inter_time: 1.5294513702392578, std_log_inter_time: 1.08988356590271
2024-04-08 16:40:38,874 - INFO - Model(
  (rnn): RNNLayer(
    (mark_embedding): Embedding(1187, 128)
    (temporal_embed): Linear(in_features=1, out_features=128, bias=True)
    (temporal_attn): GAULayer(
      (gau): GatedAttentionUnit(
        (activation): ReLU()
        (i_dense): Linear(in_features=128, out_features=640, bias=True)
        (o_dense): Linear(in_features=256, out_features=128, bias=True)
        (q_scaleoffset): ScaleOffset()
        (k_scaleoffset): ScaleOffset()
      )
      (norm): Norm()
    )
    (spatial_attn): GAULayer(
      (gau): GatedAttentionUnit(
        (activation): ReLU()
        (i_dense): Linear(in_features=128, out_features=640, bias=True)
        (o_dense): Linear(in_features=256, out_features=128, bias=True)
        (q_scaleoffset): ScaleOffset()
        (k_scaleoffset): ScaleOffset()
      )
      (norm): Norm()
    )
    (output_attn): GAULayer(
      (gau): GatedAttentionUnit(
        (activation): ReLU()
        (i_dense): Linear(in_features=128, out_features=640, bias=True)
        (o_dense): Linear(in_features=256, out_features=128, bias=True)
        (q_scaleoffset): ScaleOffset()
        (k_scaleoffset): ScaleOffset()
      )
      (norm): Norm()
    )
    (rnn): GGRU(
      (dropout): Dropout(p=0.1, inplace=False)
      (mark_fc): Linear(in_features=128, out_features=128, bias=True)
      (ggru_ln): MaybeLayerNorm(
        (ln): LayerNorm((128,), eps=0.001, elementwise_affine=True)
      )
    )
  )
  (mark_layer): Sequential(
    (0): Linear(in_features=128, out_features=1187, bias=True)
  )
  (driver_embedding): Embedding(46, 32)
  (enrichment_gran): GRAN(
    (layer_norm): MaybeLayerNorm(
      (ln): LayerNorm((128,), eps=0.001, elementwise_affine=True)
    )
    (lin_a): Linear(in_features=128, out_features=128, bias=True)
    (lin_c): Linear(in_features=32, out_features=128, bias=False)
    (lin_i): Linear(in_features=128, out_features=128, bias=True)
    (gau): GAULayer(
      (gau): GatedAttentionUnit(
        (activation): ReLU()
        (i_dense): Linear(in_features=128, out_features=640, bias=True)
        (o_dense): Linear(in_features=256, out_features=128, bias=True)
        (q_scaleoffset): ScaleOffset()
        (k_scaleoffset): ScaleOffset()
      )
      (norm): Norm()
    )
    (dropout): Dropout(p=0.1, inplace=False)
    (out_proj): Linear(in_features=128, out_features=128, bias=True)
  )
  (decoder): TransformedDistribution(
    (transforms): ModuleList(
      (0): FixedAffine()
      (1): Exp()
    )
    (base_dist): NormalMixtureDistribution(
      (hypernet): Hypernet(
        (activation): Tanh()
        (linear_rnn): Linear(in_features=128, out_features=192, bias=False)
        (linear_layers): ModuleList()
      )
    )
  )
  (h_mark_fc): Linear(in_features=128, out_features=128, bias=True)
  (h_time_fc): Linear(in_features=128, out_features=128, bias=True)
  (layer_norm_time): MaybeLayerNorm(
    (ln): LayerNorm((128,), eps=0.001, elementwise_affine=True)
  )
  (layer_norm_mark): MaybeLayerNorm(
    (ln): LayerNorm((128,), eps=0.001, elementwise_affine=True)
  )
)
2024-04-08 16:40:38,874 - INFO - Model(
  (rnn): RNNLayer(
    (mark_embedding): Embedding(1187, 128)
    (temporal_embed): Linear(in_features=1, out_features=128, bias=True)
    (temporal_attn): GAULayer(
      (gau): GatedAttentionUnit(
        (activation): ReLU()
        (i_dense): Linear(in_features=128, out_features=640, bias=True)
        (o_dense): Linear(in_features=256, out_features=128, bias=True)
        (q_scaleoffset): ScaleOffset()
        (k_scaleoffset): ScaleOffset()
      )
      (norm): Norm()
    )
    (spatial_attn): GAULayer(
      (gau): GatedAttentionUnit(
        (activation): ReLU()
        (i_dense): Linear(in_features=128, out_features=640, bias=True)
        (o_dense): Linear(in_features=256, out_features=128, bias=True)
        (q_scaleoffset): ScaleOffset()
        (k_scaleoffset): ScaleOffset()
      )
      (norm): Norm()
    )
    (output_attn): GAULayer(
      (gau): GatedAttentionUnit(
        (activation): ReLU()
        (i_dense): Linear(in_features=128, out_features=640, bias=True)
        (o_dense): Linear(in_features=256, out_features=128, bias=True)
        (q_scaleoffset): ScaleOffset()
        (k_scaleoffset): ScaleOffset()
      )
      (norm): Norm()
    )
    (rnn): GGRU(
      (dropout): Dropout(p=0.1, inplace=False)
      (mark_fc): Linear(in_features=128, out_features=128, bias=True)
      (ggru_ln): MaybeLayerNorm(
        (ln): LayerNorm((128,), eps=0.001, elementwise_affine=True)
      )
    )
  )
  (mark_layer): Sequential(
    (0): Linear(in_features=128, out_features=1187, bias=True)
  )
  (driver_embedding): Embedding(46, 32)
  (enrichment_gran): GRAN(
    (layer_norm): MaybeLayerNorm(
      (ln): LayerNorm((128,), eps=0.001, elementwise_affine=True)
    )
    (lin_a): Linear(in_features=128, out_features=128, bias=True)
    (lin_c): Linear(in_features=32, out_features=128, bias=False)
    (lin_i): Linear(in_features=128, out_features=128, bias=True)
    (gau): GAULayer(
      (gau): GatedAttentionUnit(
        (activation): ReLU()
        (i_dense): Linear(in_features=128, out_features=640, bias=True)
        (o_dense): Linear(in_features=256, out_features=128, bias=True)
        (q_scaleoffset): ScaleOffset()
        (k_scaleoffset): ScaleOffset()
      )
      (norm): Norm()
    )
    (dropout): Dropout(p=0.1, inplace=False)
    (out_proj): Linear(in_features=128, out_features=128, bias=True)
  )
  (decoder): TransformedDistribution(
    (transforms): ModuleList(
      (0): FixedAffine()
      (1): Exp()
    )
    (base_dist): NormalMixtureDistribution(
      (hypernet): Hypernet(
        (activation): Tanh()
        (linear_rnn): Linear(in_features=128, out_features=192, bias=False)
        (linear_layers): ModuleList()
      )
    )
  )
  (h_mark_fc): Linear(in_features=128, out_features=128, bias=True)
  (h_time_fc): Linear(in_features=128, out_features=128, bias=True)
  (layer_norm_time): MaybeLayerNorm(
    (ln): LayerNorm((128,), eps=0.001, elementwise_affine=True)
  )
  (layer_norm_mark): MaybeLayerNorm(
    (ln): LayerNorm((128,), eps=0.001, elementwise_affine=True)
  )
)
2024-04-08 16:40:38,874 - INFO - Model(
  (rnn): RNNLayer(
    (mark_embedding): Embedding(1187, 128)
    (temporal_embed): Linear(in_features=1, out_features=128, bias=True)
    (temporal_attn): GAULayer(
      (gau): GatedAttentionUnit(
        (activation): ReLU()
        (i_dense): Linear(in_features=128, out_features=640, bias=True)
        (o_dense): Linear(in_features=256, out_features=128, bias=True)
        (q_scaleoffset): ScaleOffset()
        (k_scaleoffset): ScaleOffset()
      )
      (norm): Norm()
    )
    (spatial_attn): GAULayer(
      (gau): GatedAttentionUnit(
        (activation): ReLU()
        (i_dense): Linear(in_features=128, out_features=640, bias=True)
        (o_dense): Linear(in_features=256, out_features=128, bias=True)
        (q_scaleoffset): ScaleOffset()
        (k_scaleoffset): ScaleOffset()
      )
      (norm): Norm()
    )
    (output_attn): GAULayer(
      (gau): GatedAttentionUnit(
        (activation): ReLU()
        (i_dense): Linear(in_features=128, out_features=640, bias=True)
        (o_dense): Linear(in_features=256, out_features=128, bias=True)
        (q_scaleoffset): ScaleOffset()
        (k_scaleoffset): ScaleOffset()
      )
      (norm): Norm()
    )
    (rnn): GGRU(
      (dropout): Dropout(p=0.1, inplace=False)
      (mark_fc): Linear(in_features=128, out_features=128, bias=True)
      (ggru_ln): MaybeLayerNorm(
        (ln): LayerNorm((128,), eps=0.001, elementwise_affine=True)
      )
    )
  )
  (mark_layer): Sequential(
    (0): Linear(in_features=128, out_features=1187, bias=True)
  )
  (driver_embedding): Embedding(46, 32)
  (enrichment_gran): GRAN(
    (layer_norm): MaybeLayerNorm(
      (ln): LayerNorm((128,), eps=0.001, elementwise_affine=True)
    )
    (lin_a): Linear(in_features=128, out_features=128, bias=True)
    (lin_c): Linear(in_features=32, out_features=128, bias=False)
    (lin_i): Linear(in_features=128, out_features=128, bias=True)
    (gau): GAULayer(
      (gau): GatedAttentionUnit(
        (activation): ReLU()
        (i_dense): Linear(in_features=128, out_features=640, bias=True)
        (o_dense): Linear(in_features=256, out_features=128, bias=True)
        (q_scaleoffset): ScaleOffset()
        (k_scaleoffset): ScaleOffset()
      )
      (norm): Norm()
    )
    (dropout): Dropout(p=0.1, inplace=False)
    (out_proj): Linear(in_features=128, out_features=128, bias=True)
  )
  (decoder): TransformedDistribution(
    (transforms): ModuleList(
      (0): FixedAffine()
      (1): Exp()
    )
    (base_dist): NormalMixtureDistribution(
      (hypernet): Hypernet(
        (activation): Tanh()
        (linear_rnn): Linear(in_features=128, out_features=192, bias=False)
        (linear_layers): ModuleList()
      )
    )
  )
  (h_mark_fc): Linear(in_features=128, out_features=128, bias=True)
  (h_time_fc): Linear(in_features=128, out_features=128, bias=True)
  (layer_norm_time): MaybeLayerNorm(
    (ln): LayerNorm((128,), eps=0.001, elementwise_affine=True)
  )
  (layer_norm_mark): MaybeLayerNorm(
    (ln): LayerNorm((128,), eps=0.001, elementwise_affine=True)
  )
)
2024-04-08 16:40:38,882 - INFO - Starting training...
2024-04-08 16:40:38,882 - INFO - Starting training...
2024-04-08 16:40:38,882 - INFO - Starting training...
  0%|          | 0/8 [00:00<?, ?it/s] 12%|=         | 1/8 [00:00<00:02,  3.29it/s] 25%|==        | 2/8 [00:00<00:01,  3.32it/s] 38%|===       | 3/8 [00:00<00:01,  3.36it/s] 50%|=====     | 4/8 [00:01<00:01,  3.41it/s] 62%|======    | 5/8 [00:01<00:00,  3.43it/s] 75%|=======   | 6/8 [00:01<00:00,  3.46it/s] 88%|========  | 7/8 [00:02<00:00,  3.46it/s]100%|==========| 8/8 [00:02<00:00,  4.04it/s]100%|==========| 8/8 [00:02<00:00,  3.63it/s]
…
2024-04-08 16:47:00,765 - INFO - Building model...
2024-04-08 16:47:00,765 - INFO - Building model...
2024-04-08 16:47:00,765 - INFO - mean_log_inter_time: 1.5294513702392578, std_log_inter_time: 1.08988356590271
2024-04-08 16:47:00,765 - INFO - mean_log_inter_time: 1.5294513702392578, std_log_inter_time: 1.08988356590271
2024-04-08 16:47:00,765 - INFO - mean_log_inter_time: 1.5294513702392578, std_log_inter_time: 1.08988356590271
2024-04-08 16:47:00,765 - INFO - mean_log_inter_time: 1.5294513702392578, std_log_inter_time: 1.08988356590271
2024-04-08 16:47:01,135 - INFO - Model(
  (rnn): RNNLayer(
    (mark_embedding): Embedding(1187, 128)
    (temporal_embed): Linear(in_features=1, out_features=128, bias=True)
    (temporal_attn): GAULayer(
      (gau): GatedAttentionUnit(
        (activation): ReLU()
        (i_dense): Linear(in_features=128, out_features=640, bias=True)
        (o_dense): Linear(in_features=256, out_features=128, bias=True)
        (q_scaleoffset): ScaleOffset()
        (k_scaleoffset): ScaleOffset()
      )
      (norm): Norm()
    )
    (spatial_attn): GAULayer(
      (gau): GatedAttentionUnit(
        (activation): ReLU()
        (i_dense): Linear(in_features=128, out_features=640, bias=True)
        (o_dense): Linear(in_features=256, out_features=128, bias=True)
        (q_scaleoffset): ScaleOffset()
        (k_scaleoffset): ScaleOffset()
      )
      (norm): Norm()
    )
    (output_attn): GAULayer(
      (gau): GatedAttentionUnit(
        (activation): ReLU()
        (i_dense): Linear(in_features=128, out_features=640, bias=True)
        (o_dense): Linear(in_features=256, out_features=128, bias=True)
        (q_scaleoffset): ScaleOffset()
        (k_scaleoffset): ScaleOffset()
      )
      (norm): Norm()
    )
    (rnn): GGRU(
      (dropout): Dropout(p=0.1, inplace=False)
      (mark_fc): Linear(in_features=128, out_features=128, bias=True)
      (ggru_ln): MaybeLayerNorm(
        (ln): LayerNorm((128,), eps=0.001, elementwise_affine=True)
      )
    )
  )
  (mark_layer): Sequential(
    (0): Linear(in_features=128, out_features=1187, bias=True)
  )
  (driver_embedding): Embedding(46, 32)
  (enrichment_gran): GRAN(
    (layer_norm): MaybeLayerNorm(
      (ln): LayerNorm((128,), eps=0.001, elementwise_affine=True)
    )
    (lin_a): Linear(in_features=128, out_features=128, bias=True)
    (lin_c): Linear(in_features=32, out_features=128, bias=False)
    (lin_i): Linear(in_features=128, out_features=128, bias=True)
    (gau): GAULayer(
      (gau): GatedAttentionUnit(
        (activation): ReLU()
        (i_dense): Linear(in_features=128, out_features=640, bias=True)
        (o_dense): Linear(in_features=256, out_features=128, bias=True)
        (q_scaleoffset): ScaleOffset()
        (k_scaleoffset): ScaleOffset()
      )
      (norm): Norm()
    )
    (dropout): Dropout(p=0.1, inplace=False)
    (out_proj): Linear(in_features=128, out_features=128, bias=True)
  )
  (decoder): TransformedDistribution(
    (transforms): ModuleList(
      (0): FixedAffine()
      (1): Exp()
    )
    (base_dist): NormalMixtureDistribution(
      (hypernet): Hypernet(
        (activation): Tanh()
        (linear_rnn): Linear(in_features=128, out_features=192, bias=False)
        (linear_layers): ModuleList()
      )
    )
  )
  (h_mark_fc): Linear(in_features=128, out_features=128, bias=True)
  (h_time_fc): Linear(in_features=128, out_features=128, bias=True)
  (layer_norm_time): MaybeLayerNorm(
    (ln): LayerNorm((128,), eps=0.001, elementwise_affine=True)
  )
  (layer_norm_mark): MaybeLayerNorm(
    (ln): LayerNorm((128,), eps=0.001, elementwise_affine=True)
  )
)
2024-04-08 16:47:01,135 - INFO - Model(
  (rnn): RNNLayer(
    (mark_embedding): Embedding(1187, 128)
    (temporal_embed): Linear(in_features=1, out_features=128, bias=True)
    (temporal_attn): GAULayer(
      (gau): GatedAttentionUnit(
        (activation): ReLU()
        (i_dense): Linear(in_features=128, out_features=640, bias=True)
        (o_dense): Linear(in_features=256, out_features=128, bias=True)
        (q_scaleoffset): ScaleOffset()
        (k_scaleoffset): ScaleOffset()
      )
      (norm): Norm()
    )
    (spatial_attn): GAULayer(
      (gau): GatedAttentionUnit(
        (activation): ReLU()
        (i_dense): Linear(in_features=128, out_features=640, bias=True)
        (o_dense): Linear(in_features=256, out_features=128, bias=True)
        (q_scaleoffset): ScaleOffset()
        (k_scaleoffset): ScaleOffset()
      )
      (norm): Norm()
    )
    (output_attn): GAULayer(
      (gau): GatedAttentionUnit(
        (activation): ReLU()
        (i_dense): Linear(in_features=128, out_features=640, bias=True)
        (o_dense): Linear(in_features=256, out_features=128, bias=True)
        (q_scaleoffset): ScaleOffset()
        (k_scaleoffset): ScaleOffset()
      )
      (norm): Norm()
    )
    (rnn): GGRU(
      (dropout): Dropout(p=0.1, inplace=False)
      (mark_fc): Linear(in_features=128, out_features=128, bias=True)
      (ggru_ln): MaybeLayerNorm(
        (ln): LayerNorm((128,), eps=0.001, elementwise_affine=True)
      )
    )
  )
  (mark_layer): Sequential(
    (0): Linear(in_features=128, out_features=1187, bias=True)
  )
  (driver_embedding): Embedding(46, 32)
  (enrichment_gran): GRAN(
    (layer_norm): MaybeLayerNorm(
      (ln): LayerNorm((128,), eps=0.001, elementwise_affine=True)
    )
    (lin_a): Linear(in_features=128, out_features=128, bias=True)
    (lin_c): Linear(in_features=32, out_features=128, bias=False)
    (lin_i): Linear(in_features=128, out_features=128, bias=True)
    (gau): GAULayer(
      (gau): GatedAttentionUnit(
        (activation): ReLU()
        (i_dense): Linear(in_features=128, out_features=640, bias=True)
        (o_dense): Linear(in_features=256, out_features=128, bias=True)
        (q_scaleoffset): ScaleOffset()
        (k_scaleoffset): ScaleOffset()
      )
      (norm): Norm()
    )
    (dropout): Dropout(p=0.1, inplace=False)
    (out_proj): Linear(in_features=128, out_features=128, bias=True)
  )
  (decoder): TransformedDistribution(
    (transforms): ModuleList(
      (0): FixedAffine()
      (1): Exp()
    )
    (base_dist): NormalMixtureDistribution(
      (hypernet): Hypernet(
        (activation): Tanh()
        (linear_rnn): Linear(in_features=128, out_features=192, bias=False)
        (linear_layers): ModuleList()
      )
    )
  )
  (h_mark_fc): Linear(in_features=128, out_features=128, bias=True)
  (h_time_fc): Linear(in_features=128, out_features=128, bias=True)
  (layer_norm_time): MaybeLayerNorm(
    (ln): LayerNorm((128,), eps=0.001, elementwise_affine=True)
  )
  (layer_norm_mark): MaybeLayerNorm(
    (ln): LayerNorm((128,), eps=0.001, elementwise_affine=True)
  )
)
2024-04-08 16:47:01,135 - INFO - Model(
  (rnn): RNNLayer(
    (mark_embedding): Embedding(1187, 128)
    (temporal_embed): Linear(in_features=1, out_features=128, bias=True)
    (temporal_attn): GAULayer(
      (gau): GatedAttentionUnit(
        (activation): ReLU()
        (i_dense): Linear(in_features=128, out_features=640, bias=True)
        (o_dense): Linear(in_features=256, out_features=128, bias=True)
        (q_scaleoffset): ScaleOffset()
        (k_scaleoffset): ScaleOffset()
      )
      (norm): Norm()
    )
    (spatial_attn): GAULayer(
      (gau): GatedAttentionUnit(
        (activation): ReLU()
        (i_dense): Linear(in_features=128, out_features=640, bias=True)
        (o_dense): Linear(in_features=256, out_features=128, bias=True)
        (q_scaleoffset): ScaleOffset()
        (k_scaleoffset): ScaleOffset()
      )
      (norm): Norm()
    )
    (output_attn): GAULayer(
      (gau): GatedAttentionUnit(
        (activation): ReLU()
        (i_dense): Linear(in_features=128, out_features=640, bias=True)
        (o_dense): Linear(in_features=256, out_features=128, bias=True)
        (q_scaleoffset): ScaleOffset()
        (k_scaleoffset): ScaleOffset()
      )
      (norm): Norm()
    )
    (rnn): GGRU(
      (dropout): Dropout(p=0.1, inplace=False)
      (mark_fc): Linear(in_features=128, out_features=128, bias=True)
      (ggru_ln): MaybeLayerNorm(
        (ln): LayerNorm((128,), eps=0.001, elementwise_affine=True)
      )
    )
  )
  (mark_layer): Sequential(
    (0): Linear(in_features=128, out_features=1187, bias=True)
  )
  (driver_embedding): Embedding(46, 32)
  (enrichment_gran): GRAN(
    (layer_norm): MaybeLayerNorm(
      (ln): LayerNorm((128,), eps=0.001, elementwise_affine=True)
    )
    (lin_a): Linear(in_features=128, out_features=128, bias=True)
    (lin_c): Linear(in_features=32, out_features=128, bias=False)
    (lin_i): Linear(in_features=128, out_features=128, bias=True)
    (gau): GAULayer(
      (gau): GatedAttentionUnit(
        (activation): ReLU()
        (i_dense): Linear(in_features=128, out_features=640, bias=True)
        (o_dense): Linear(in_features=256, out_features=128, bias=True)
        (q_scaleoffset): ScaleOffset()
        (k_scaleoffset): ScaleOffset()
      )
      (norm): Norm()
    )
    (dropout): Dropout(p=0.1, inplace=False)
    (out_proj): Linear(in_features=128, out_features=128, bias=True)
  )
  (decoder): TransformedDistribution(
    (transforms): ModuleList(
      (0): FixedAffine()
      (1): Exp()
    )
    (base_dist): NormalMixtureDistribution(
      (hypernet): Hypernet(
        (activation): Tanh()
        (linear_rnn): Linear(in_features=128, out_features=192, bias=False)
        (linear_layers): ModuleList()
      )
    )
  )
  (h_mark_fc): Linear(in_features=128, out_features=128, bias=True)
  (h_time_fc): Linear(in_features=128, out_features=128, bias=True)
  (layer_norm_time): MaybeLayerNorm(
    (ln): LayerNorm((128,), eps=0.001, elementwise_affine=True)
  )
  (layer_norm_mark): MaybeLayerNorm(
    (ln): LayerNorm((128,), eps=0.001, elementwise_affine=True)
  )
)
2024-04-08 16:47:01,135 - INFO - Model(
  (rnn): RNNLayer(
    (mark_embedding): Embedding(1187, 128)
    (temporal_embed): Linear(in_features=1, out_features=128, bias=True)
    (temporal_attn): GAULayer(
      (gau): GatedAttentionUnit(
        (activation): ReLU()
        (i_dense): Linear(in_features=128, out_features=640, bias=True)
        (o_dense): Linear(in_features=256, out_features=128, bias=True)
        (q_scaleoffset): ScaleOffset()
        (k_scaleoffset): ScaleOffset()
      )
      (norm): Norm()
    )
    (spatial_attn): GAULayer(
      (gau): GatedAttentionUnit(
        (activation): ReLU()
        (i_dense): Linear(in_features=128, out_features=640, bias=True)
        (o_dense): Linear(in_features=256, out_features=128, bias=True)
        (q_scaleoffset): ScaleOffset()
        (k_scaleoffset): ScaleOffset()
      )
      (norm): Norm()
    )
    (output_attn): GAULayer(
      (gau): GatedAttentionUnit(
        (activation): ReLU()
        (i_dense): Linear(in_features=128, out_features=640, bias=True)
        (o_dense): Linear(in_features=256, out_features=128, bias=True)
        (q_scaleoffset): ScaleOffset()
        (k_scaleoffset): ScaleOffset()
      )
      (norm): Norm()
    )
    (rnn): GGRU(
      (dropout): Dropout(p=0.1, inplace=False)
      (mark_fc): Linear(in_features=128, out_features=128, bias=True)
      (ggru_ln): MaybeLayerNorm(
        (ln): LayerNorm((128,), eps=0.001, elementwise_affine=True)
      )
    )
  )
  (mark_layer): Sequential(
    (0): Linear(in_features=128, out_features=1187, bias=True)
  )
  (driver_embedding): Embedding(46, 32)
  (enrichment_gran): GRAN(
    (layer_norm): MaybeLayerNorm(
      (ln): LayerNorm((128,), eps=0.001, elementwise_affine=True)
    )
    (lin_a): Linear(in_features=128, out_features=128, bias=True)
    (lin_c): Linear(in_features=32, out_features=128, bias=False)
    (lin_i): Linear(in_features=128, out_features=128, bias=True)
    (gau): GAULayer(
      (gau): GatedAttentionUnit(
        (activation): ReLU()
        (i_dense): Linear(in_features=128, out_features=640, bias=True)
        (o_dense): Linear(in_features=256, out_features=128, bias=True)
        (q_scaleoffset): ScaleOffset()
        (k_scaleoffset): ScaleOffset()
      )
      (norm): Norm()
    )
    (dropout): Dropout(p=0.1, inplace=False)
    (out_proj): Linear(in_features=128, out_features=128, bias=True)
  )
  (decoder): TransformedDistribution(
    (transforms): ModuleList(
      (0): FixedAffine()
      (1): Exp()
    )
    (base_dist): NormalMixtureDistribution(
      (hypernet): Hypernet(
        (activation): Tanh()
        (linear_rnn): Linear(in_features=128, out_features=192, bias=False)
        (linear_layers): ModuleList()
      )
    )
  )
  (h_mark_fc): Linear(in_features=128, out_features=128, bias=True)
  (h_time_fc): Linear(in_features=128, out_features=128, bias=True)
  (layer_norm_time): MaybeLayerNorm(
    (ln): LayerNorm((128,), eps=0.001, elementwise_affine=True)
  )
  (layer_norm_mark): MaybeLayerNorm(
    (ln): LayerNorm((128,), eps=0.001, elementwise_affine=True)
  )
)
2024-04-08 16:47:01,144 - INFO - Starting training...
2024-04-08 16:47:01,144 - INFO - Starting training...
2024-04-08 16:47:01,144 - INFO - Starting training...
2024-04-08 16:47:01,144 - INFO - Starting training...
  0%|          | 0/8 [00:00<?, ?it/s] 12%|=         | 1/8 [00:00<00:02,  3.29it/s] 25%|==        | 2/8 [00:00<00:01,  3.31it/s] 38
…
2024-04-08 16:52:56,725 - INFO - mean_log_inter_time: 1.5294513702392578, std_log_inter_time: 1.08988356590271
2024-04-08 16:52:56,725 - INFO - mean_log_inter_time: 1.5294513702392578, std_log_inter_time: 1.08988356590271
2024-04-08 16:52:56,725 - INFO - mean_log_inter_time: 1.5294513702392578, std_log_inter_time: 1.08988356590271
2024-04-08 16:52:56,725 - INFO - mean_log_inter_time: 1.5294513702392578, std_log_inter_time: 1.08988356590271
2024-04-08 16:52:56,725 - INFO - mean_log_inter_time: 1.5294513702392578, std_log_inter_time: 1.08988356590271
2024-04-08 16:52:57,106 - INFO - Model(
  (rnn): RNNLayer(
    (mark_embedding): Embedding(1187, 128)
    (temporal_embed): Linear(in_features=1, out_features=128, bias=True)
    (temporal_attn): GAULayer(
      (gau): GatedAttentionUnit(
        (activation): ReLU()
        (i_dense): Linear(in_features=128, out_features=640, bias=True)
        (o_dense): Linear(in_features=256, out_features=128, bias=True)
        (q_scaleoffset): ScaleOffset()
        (k_scaleoffset): ScaleOffset()
      )
      (norm): Norm()
    )
    (spatial_attn): GAULayer(
      (gau): GatedAttentionUnit(
        (activation): ReLU()
        (i_dense): Linear(in_features=128, out_features=640, bias=True)
        (o_dense): Linear(in_features=256, out_features=128, bias=True)
        (q_scaleoffset): ScaleOffset()
        (k_scaleoffset): ScaleOffset()
      )
      (norm): Norm()
    )
    (output_attn): GAULayer(
      (gau): GatedAttentionUnit(
        (activation): ReLU()
        (i_dense): Linear(in_features=128, out_features=640, bias=True)
        (o_dense): Linear(in_features=256, out_features=128, bias=True)
        (q_scaleoffset): ScaleOffset()
        (k_scaleoffset): ScaleOffset()
      )
      (norm): Norm()
    )
    (rnn): GGRU(
      (dropout): Dropout(p=0.1, inplace=False)
      (mark_fc): Linear(in_features=128, out_features=128, bias=True)
      (ggru_ln): MaybeLayerNorm(
        (ln): LayerNorm((128,), eps=0.001, elementwise_affine=True)
      )
    )
  )
  (mark_layer): Sequential(
    (0): Linear(in_features=128, out_features=1187, bias=True)
  )
  (driver_embedding): Embedding(46, 32)
  (enrichment_gran): GRAN(
    (layer_norm): MaybeLayerNorm(
      (ln): LayerNorm((128,), eps=0.001, elementwise_affine=True)
    )
    (lin_a): Linear(in_features=128, out_features=128, bias=True)
    (lin_c): Linear(in_features=32, out_features=128, bias=False)
    (lin_i): Linear(in_features=128, out_features=128, bias=True)
    (gau): GAULayer(
      (gau): GatedAttentionUnit(
        (activation): ReLU()
        (i_dense): Linear(in_features=128, out_features=640, bias=True)
        (o_dense): Linear(in_features=256, out_features=128, bias=True)
        (q_scaleoffset): ScaleOffset()
        (k_scaleoffset): ScaleOffset()
      )
      (norm): Norm()
    )
    (dropout): Dropout(p=0.1, inplace=False)
    (out_proj): Linear(in_features=128, out_features=128, bias=True)
  )
  (decoder): TransformedDistribution(
    (transforms): ModuleList(
      (0): FixedAffine()
      (1): Exp()
    )
    (base_dist): NormalMixtureDistribution(
      (hypernet): Hypernet(
        (activation): Tanh()
        (linear_rnn): Linear(in_features=128, out_features=192, bias=False)
        (linear_layers): ModuleList()
      )
    )
  )
  (h_mark_fc): Linear(in_features=128, out_features=128, bias=True)
  (h_time_fc): Linear(in_features=128, out_features=128, bias=True)
  (layer_norm_time): MaybeLayerNorm(
    (ln): LayerNorm((128,), eps=0.001, elementwise_affine=True)
  )
  (layer_norm_mark): MaybeLayerNorm(
    (ln): LayerNorm((128,), eps=0.001, elementwise_affine=True)
  )
)
2024-04-08 16:52:57,106 - INFO - Model(
  (rnn): RNNLayer(
    (mark_embedding): Embedding(1187, 128)
    (temporal_embed): Linear(in_features=1, out_features=128, bias=True)
    (temporal_attn): GAULayer(
      (gau): GatedAttentionUnit(
        (activation): ReLU()
        (i_dense): Linear(in_features=128, out_features=640, bias=True)
        (o_dense): Linear(in_features=256, out_features=128, bias=True)
        (q_scaleoffset): ScaleOffset()
        (k_scaleoffset): ScaleOffset()
      )
      (norm): Norm()
    )
    (spatial_attn): GAULayer(
      (gau): GatedAttentionUnit(
        (activation): ReLU()
        (i_dense): Linear(in_features=128, out_features=640, bias=True)
        (o_dense): Linear(in_features=256, out_features=128, bias=True)
        (q_scaleoffset): ScaleOffset()
        (k_scaleoffset): ScaleOffset()
      )
      (norm): Norm()
    )
    (output_attn): GAULayer(
      (gau): GatedAttentionUnit(
        (activation): ReLU()
        (i_dense): Linear(in_features=128, out_features=640, bias=True)
        (o_dense): Linear(in_features=256, out_features=128, bias=True)
        (q_scaleoffset): ScaleOffset()
        (k_scaleoffset): ScaleOffset()
      )
      (norm): Norm()
    )
    (rnn): GGRU(
      (dropout): Dropout(p=0.1, inplace=False)
      (mark_fc): Linear(in_features=128, out_features=128, bias=True)
      (ggru_ln): MaybeLayerNorm(
        (ln): LayerNorm((128,), eps=0.001, elementwise_affine=True)
      )
    )
  )
  (mark_layer): Sequential(
    (0): Linear(in_features=128, out_features=1187, bias=True)
  )
  (driver_embedding): Embedding(46, 32)
  (enrichment_gran): GRAN(
    (layer_norm): MaybeLayerNorm(
      (ln): LayerNorm((128,), eps=0.001, elementwise_affine=True)
    )
    (lin_a): Linear(in_features=128, out_features=128, bias=True)
    (lin_c): Linear(in_features=32, out_features=128, bias=False)
    (lin_i): Linear(in_features=128, out_features=128, bias=True)
    (gau): GAULayer(
      (gau): GatedAttentionUnit(
        (activation): ReLU()
        (i_dense): Linear(in_features=128, out_features=640, bias=True)
        (o_dense): Linear(in_features=256, out_features=128, bias=True)
        (q_scaleoffset): ScaleOffset()
        (k_scaleoffset): ScaleOffset()
      )
      (norm): Norm()
    )
    (dropout): Dropout(p=0.1, inplace=False)
    (out_proj): Linear(in_features=128, out_features=128, bias=True)
  )
  (decoder): TransformedDistribution(
    (transforms): ModuleList(
      (0): FixedAffine()
      (1): Exp()
    )
    (base_dist): NormalMixtureDistribution(
      (hypernet): Hypernet(
        (activation): Tanh()
        (linear_rnn): Linear(in_features=128, out_features=192, bias=False)
        (linear_layers): ModuleList()
      )
    )
  )
  (h_mark_fc): Linear(in_features=128, out_features=128, bias=True)
  (h_time_fc): Linear(in_features=128, out_features=128, bias=True)
  (layer_norm_time): MaybeLayerNorm(
    (ln): LayerNorm((128,), eps=0.001, elementwise_affine=True)
  )
  (layer_norm_mark): MaybeLayerNorm(
    (ln): LayerNorm((128,), eps=0.001, elementwise_affine=True)
  )
)
2024-04-08 16:52:57,106 - INFO - Model(
  (rnn): RNNLayer(
    (mark_embedding): Embedding(1187, 128)
    (temporal_embed): Linear(in_features=1, out_features=128, bias=True)
    (temporal_attn): GAULayer(
      (gau): GatedAttentionUnit(
        (activation): ReLU()
        (i_dense): Linear(in_features=128, out_features=640, bias=True)
        (o_dense): Linear(in_features=256, out_features=128, bias=True)
        (q_scaleoffset): ScaleOffset()
        (k_scaleoffset): ScaleOffset()
      )
      (norm): Norm()
    )
    (spatial_attn): GAULayer(
      (gau): GatedAttentionUnit(
        (activation): ReLU()
        (i_dense): Linear(in_features=128, out_features=640, bias=True)
        (o_dense): Linear(in_features=256, out_features=128, bias=True)
        (q_scaleoffset): ScaleOffset()
        (k_scaleoffset): ScaleOffset()
      )
      (norm): Norm()
    )
    (output_attn): GAULayer(
      (gau): GatedAttentionUnit(
        (activation): ReLU()
        (i_dense): Linear(in_features=128, out_features=640, bias=True)
        (o_dense): Linear(in_features=256, out_features=128, bias=True)
        (q_scaleoffset): ScaleOffset()
        (k_scaleoffset): ScaleOffset()
      )
      (norm): Norm()
    )
    (rnn): GGRU(
      (dropout): Dropout(p=0.1, inplace=False)
      (mark_fc): Linear(in_features=128, out_features=128, bias=True)
      (ggru_ln): MaybeLayerNorm(
        (ln): LayerNorm((128,), eps=0.001, elementwise_affine=True)
      )
    )
  )
  (mark_layer): Sequential(
    (0): Linear(in_features=128, out_features=1187, bias=True)
  )
  (driver_embedding): Embedding(46, 32)
  (enrichment_gran): GRAN(
    (layer_norm): MaybeLayerNorm(
      (ln): LayerNorm((128,), eps=0.001, elementwise_affine=True)
    )
    (lin_a): Linear(in_features=128, out_features=128, bias=True)
    (lin_c): Linear(in_features=32, out_features=128, bias=False)
    (lin_i): Linear(in_features=128, out_features=128, bias=True)
    (gau): GAULayer(
      (gau): GatedAttentionUnit(
        (activation): ReLU()
        (i_dense): Linear(in_features=128, out_features=640, bias=True)
        (o_dense): Linear(in_features=256, out_features=128, bias=True)
        (q_scaleoffset): ScaleOffset()
        (k_scaleoffset): ScaleOffset()
      )
      (norm): Norm()
    )
    (dropout): Dropout(p=0.1, inplace=False)
    (out_proj): Linear(in_features=128, out_features=128, bias=True)
  )
  (decoder): TransformedDistribution(
    (transforms): ModuleList(
      (0): FixedAffine()
      (1): Exp()
    )
    (base_dist): NormalMixtureDistribution(
      (hypernet): Hypernet(
        (activation): Tanh()
        (linear_rnn): Linear(in_features=128, out_features=192, bias=False)
        (linear_layers): ModuleList()
      )
    )
  )
  (h_mark_fc): Linear(in_features=128, out_features=128, bias=True)
  (h_time_fc): Linear(in_features=128, out_features=128, bias=True)
  (layer_norm_time): MaybeLayerNorm(
    (ln): LayerNorm((128,), eps=0.001, elementwise_affine=True)
  )
  (layer_norm_mark): MaybeLayerNorm(
    (ln): LayerNorm((128,), eps=0.001, elementwise_affine=True)
  )
)
2024-04-08 16:52:57,106 - INFO - Model(
  (rnn): RNNLayer(
    (mark_embedding): Embedding(1187, 128)
    (temporal_embed): Linear(in_features=1, out_features=128, bias=True)
    (temporal_attn): GAULayer(
      (gau): GatedAttentionUnit(
        (activation): ReLU()
        (i_dense): Linear(in_features=128, out_features=640, bias=True)
        (o_dense): Linear(in_features=256, out_features=128, bias=True)
        (q_scaleoffset): ScaleOffset()
        (k_scaleoffset): ScaleOffset()
      )
      (norm): Norm()
    )
    (spatial_attn): GAULayer(
      (gau): GatedAttentionUnit(
        (activation): ReLU()
        (i_dense): Linear(in_features=128, out_features=640, bias=True)
        (o_dense): Linear(in_features=256, out_features=128, bias=True)
        (q_scaleoffset): ScaleOffset()
        (k_scaleoffset): ScaleOffset()
      )
      (norm): Norm()
    )
    (output_attn): GAULayer(
      (gau): GatedAttentionUnit(
        (activation): ReLU()
        (i_dense): Linear(in_features=128, out_features=640, bias=True)
        (o_dense): Linear(in_features=256, out_features=128, bias=True)
        (q_scaleoffset): ScaleOffset()
        (k_scaleoffset): ScaleOffset()
      )
      (norm): Norm()
    )
    (rnn): GGRU(
      (dropout): Dropout(p=0.1, inplace=False)
      (mark_fc): Linear(in_features=128, out_features=128, bias=True)
      (ggru_ln): MaybeLayerNorm(
        (ln): LayerNorm((128,), eps=0.001, elementwise_affine=True)
      )
    )
  )
  (mark_layer): Sequential(
    (0): Linear(in_features=128, out_features=1187, bias=True)
  )
  (driver_embedding): Embedding(46, 32)
  (enrichment_gran): GRAN(
    (layer_norm): MaybeLayerNorm(
      (ln): LayerNorm((128,), eps=0.001, elementwise_affine=True)
    )
    (lin_a): Linear(in_features=128, out_features=128, bias=True)
    (lin_c): Linear(in_features=32, out_features=128, bias=False)
    (lin_i): Linear(in_features=128, out_features=128, bias=True)
    (gau): GAULayer(
      (gau): GatedAttentionUnit(
        (activation): ReLU()
        (i_dense): Linear(in_features=128, out_features=640, bias=True)
        (o_dense): Linear(in_features=256, out_features=128, bias=True)
        (q_scaleoffset): ScaleOffset()
        (k_scaleoffset): ScaleOffset()
      )
      (norm): Norm()
    )
    (dropout): Dropout(p=0.1, inplace=False)
    (out_proj): Linear(in_features=128, out_features=128, bias=True)
  )
  (decoder): TransformedDistribution(
    (transforms): ModuleList(
      (0): FixedAffine()
      (1): Exp()
    )
    (base_dist): NormalMixtureDistribution(
      (hypernet): Hypernet(
        (activation): Tanh()
        (linear_rnn): Linear(in_features=128, out_features=192, bias=False)
        (linear_layers): ModuleList()
      )
    )
  )
  (h_mark_fc): Linear(in_features=128, out_features=128, bias=True)
  (h_time_fc): Linear(in_features=128, out_features=128, bias=True)
  (layer_norm_time): MaybeLayerNorm(
    (ln): LayerNorm((128,), eps=0.001, elementwise_affine=True)
  )
  (layer_norm_mark): MaybeLayerNorm(
    (ln): LayerNorm((128,), eps=0.001, elementwise_affine=True)
  )
)
2024-04-08 16:52:57,106 - INFO - Model(
  (rnn): RNNLayer(
    (mark_embedding): Embedding(1187, 128)
    (temporal_embed): Linear(in_features=1, out_features=128, bias=True)
    (temporal_attn): GAULayer(
      (gau): GatedAttentionUnit(
        (activation): ReLU()
        (i_dense): Linear(in_features=128, out_features=640, bias=True)
        (o_dense): Linear(in_features=256, out_features=128, bias=True)
        (q_scaleoffset): ScaleOffset()
        (k_scaleoffset): ScaleOffset()
      )
      (norm): Norm()
    )
    (spatial_attn): GAULayer(
      (gau): GatedAttentionUnit(
        (activation): ReLU()
        (i_dense): Linear(in_features=128, out_features=640, bias=True)
        (o_dense): Linear(in_features=256, out_features=128, bias=True)
        (q_scaleoffset): ScaleOffset()
        (k_scaleoffset): ScaleOffset()
      )
      (norm): Norm()
    )
    (output_attn): GAULayer(
      (gau): GatedAttentionUnit(
        (activation): ReLU()
        (i_dense): Linear(in_features=128, out_features=640, bias=True)
        (o_dense): Linear(in_features=256, out_features=128, bias=True)
        (q_scaleoffset): ScaleOffset()
        (k_scaleoffset): ScaleOffset()
      )
      (norm): Norm()
    )
    (rnn): GGRU(
      (dropout): Dropout(p=0.1, inplace=False)
      (mark_fc): Linear(in_features=128, out_features=128, bias=True)
      (ggru_ln): MaybeLayerNorm(
        (ln): LayerNorm((128,), eps=0.001, elementwise_affine=True)
      )
    )
  )
  (mark_layer): Sequential(
    (0): Linear(in_features=128, out_features=1187, bias=True)
  )
  (driver_embedding): Embedding(46, 32)
  (enrichment_gran): GRAN(
    (layer_norm): MaybeLayerNorm(
      (ln): LayerNorm((128,), eps=0.001, elementwise_affine=True)
    )
    (lin_a): Linear(in_features=128, out_features=128, bias=True)
    (lin_c): Linear(in_features=32, out_features=128, bias=False)
    (lin_i): Linear(in_features=128, out_features=128, bias=True)
    (gau): GAULayer(
      (gau): GatedAttentionUnit(
        (activation): ReLU()
        (i_dense): Linear(in_features=128, out_features=640, bias=True)
        (o_dense): Linear(in_features=256, out_features=128, bias=True)
        (q_scaleoffset): ScaleOffset()
        (k_scaleoffset): ScaleOffset()
      )
      (norm): Norm()
    )
    (dropout): Dropout(p=0.1, inplace=False)
    (out_proj): Linear(in_features=128, out_features=128, bias=True)
  )
  (decoder): TransformedDistribution(
    (transforms): ModuleList(
      (0): FixedAffine()
      (1): Exp()
    )
    (base_dist): NormalMixtureDistribution(
      (hypernet): Hypernet(
        (activation): Tanh()
        (linear_rnn): Linear(in_features=128, out_features=192, bias=False)
        (linear_layers): ModuleList()
      )
    )
  )
  (h_mark_fc): Linear(in_features=128, out_features=128, bias=True)
  (h_time_fc): Linear(in_features=128, out_features=128, bias=True)
  (layer_norm_time): MaybeLayerNorm(
    (ln): LayerNorm((128,), eps=0.001, elementwise_affine=True)
  )
  (layer_norm_mark): MaybeLayerNorm(
    (ln): LayerNorm((128,), eps=0.001, elementwise_affine=True)
  )
)
2024-04-08 16:52:57,115 - INFO - Starting training...
2024-04-08 16:52:57,115 - INFO - Starting training...
2024-04-08 16:52:57,115 - INFO - Starting training...
2024-04-08 16:52:57,115 - INFO - Starting training...
2024-04-08 16:52:57,115 - INFO - Starting training...
  0%|          | 0/8 [00:00<?, ?it/s] 12%|=         | 1/8 [00:00<00:02,  3.28i
…
