…
g-2024-04-08-16-40-35/', mean_in_train=tensor(1.5295, device='cuda:1'), std_in_train=tensor(1.0899, device='cuda:1'))
2024-04-08 16:40:35,376 - __main__ - INFO - Using GPU 1
2024-04-08 16:40:35,376 - __main__ - INFO - load data...
2024-04-08 16:40:38,216 - __main__ - INFO - num_drivers: 46, d_train: 20, d_val: 29, d_test: 28
2024-04-08 16:40:38,506 - __main__ - INFO - Building model...
2024-04-08 16:40:38,507 - __main__ - INFO - mean_log_inter_time: 1.5294513702392578, std_log_inter_time: 1.08988356590271
2024-04-08 16:40:38,874 - __main__ - INFO - Model(
  (rnn): RNNLayer(
    (mark_embedding): Embedding(1187, 128)
    (temporal_embed): Linear(in_features=1, out_features=128, bias=True)
    (temporal_attn): GAULayer(
      (gau): GatedAttentionUnit(
        (activation): ReLU()
        (i_dense): Linear(in_features=128, out_features=640, bias=True)
        (o_dense): Linear(in_features=256, out_features=128, bias=True)
        (q_scaleoffset): ScaleOffset()
        (k_scaleoffset): ScaleOffset()
      )
      (norm): Norm()
    )
    (spatial_attn): GAULayer(
      (gau): GatedAttentionUnit(
        (activation): ReLU()
        (i_dense): Linear(in_features=128, out_features=640, bias=True)
        (o_dense): Linear(in_features=256, out_features=128, bias=True)
        (q_scaleoffset): ScaleOffset()
        (k_scaleoffset): ScaleOffset()
      )
      (norm): Norm()
    )
    (output_attn): GAULayer(
      (gau): GatedAttentionUnit(
        (activation): ReLU()
        (i_dense): Linear(in_features=128, out_features=640, bias=True)
        (o_dense): Linear(in_features=256, out_features=128, bias=True)
        (q_scaleoffset): ScaleOffset()
        (k_scaleoffset): ScaleOffset()
      )
      (norm): Norm()
    )
    (rnn): GGRU(
      (dropout): Dropout(p=0.1, inplace=False)
      (mark_fc): Linear(in_features=128, out_features=128, bias=True)
      (ggru_ln): MaybeLayerNorm(
        (ln): LayerNorm((128,), eps=0.001, elementwise_affine=True)
      )
    )
  )
  (mark_layer): Sequential(
    (0): Linear(in_features=128, out_features=1187, bias=True)
  )
  (driver_embedding): Embedding(46, 32)
  (enrichment_gran): GRAN(
    (layer_norm): MaybeLayerNorm(
      (ln): LayerNorm((128,), eps=0.001, elementwise_affine=True)
    )
    (lin_a): Linear(in_features=128, out_features=128, bias=True)
    (lin_c): Linear(in_features=32, out_features=128, bias=False)
    (lin_i): Linear(in_features=128, out_features=128, bias=True)
    (gau): GAULayer(
      (gau): GatedAttentionUnit(
        (activation): ReLU()
        (i_dense): Linear(in_features=128, out_features=640, bias=True)
        (o_dense): Linear(in_features=256, out_features=128, bias=True)
        (q_scaleoffset): ScaleOffset()
        (k_scaleoffset): ScaleOffset()
      )
      (norm): Norm()
    )
    (dropout): Dropout(p=0.1, inplace=False)
    (out_proj): Linear(in_features=128, out_features=128, bias=True)
  )
  (decoder): TransformedDistribution(
    (transforms): ModuleList(
      (0): FixedAffine()
      (1): Exp()
    )
    (base_dist): NormalMixtureDistribution(
      (hypernet): Hypernet(
        (activation): Tanh()
        (linear_rnn): Linear(in_features=128, out_features=192, bias=False)
        (linear_layers): ModuleList()
      )
    )
  )
  (h_mark_fc): Linear(in_features=128, out_features=128, bias=True)
  (h_time_fc): Linear(in_features=128, out_features=128, bias=True)
  (layer_norm_time): MaybeLayerNorm(
    (ln): LayerNorm((128,), eps=0.001, elementwise_affine=True)
  )
  (layer_norm_mark): MaybeLayerNorm(
    (ln): LayerNorm((128,), eps=0.001, elementwise_affine=True)
  )
)
2024-04-08 16:40:38,882 - __main__ - INFO - Starting training...
2024-04-08 16:40:41,583 - __main__ - INFO - Epoch: 1, loss_train_last_batch: 10.2526, loss_val: 10.2025, best_loss: 10.2025, impatient: 0
2024-04-08 16:40:44,257 - __main__ - INFO - Epoch: 2, loss_train_last_batch: 9.9219, loss_val: 9.8852, best_loss: 9.8852, impatient: 0
2024-04-08 16:40:46,924 - __main__ - INFO - Epoch: 3, loss_train_last_batch: 9.4273, loss_val: 9.6453, best_loss: 9.6453, impatient: 0
…
